…
    "epoch": 1500,
    "lr": 0.0001,
    "early_stop_patience": 50,
    "num_workers": 40,
    "fp16": true,
    "show_plots": true,
    "load_check_point": false,
    "world_size": 1,
    "num_nodes": 1,
    "proc_per_node": 1,
    "num_levels": 6,
    "corr_activation": true,
    "output_level": 4,
    "save_model": 10,
    "search_range": 4,
    "lv_chs": [1, 16, 32, 64, 96, 128],
    "corr": "costvol_layer",
    "load_all_data": true,
    "save_npy": true,
    "batch_norm": true,
    "residual": false,
    "with_refiner": true,
    "TestFolder": "../images",
    "model": "SpeckleDisplacementNet(\n  (conv1): Conv2d(6, 32, kernel_size=(7, 7), stride=(1, 1), padding=(3, 3))\n  (conv2): Conv2d(32, 64, kernel_size=(5, 5), stride=(2, 2), padding=(2, 2))\n  (conv3): Conv2d(64, 128, kernel_size=(3, 3), stride=(2, 2), padding=(1, 1))\n  (conv4): Conv2d(128, 256, kernel_size=(3, 3), stride=(2, 2), padding=(1, 1))\n  (conv5): Conv2d(256, 256, kernel_size=(3, 3), stride=(2, 2), padding=(1, 1))\n  (conv6): Conv2d(256, 256, kernel_size=(3, 3), stride=(1, 1), padding=(1, 1))\n  (upconv5): ConvTranspose2d(256, 256, kernel_size=(4, 4), stride=(2, 2), padding=(1, 1))\n  (iconv5): Conv2d(512, 128, kernel_size=(3, 3), stride=(1, 1), padding=(1, 1))\n  (upconv4): ConvTranspose2d(128, 128, kernel_size=(4, 4), stride=(2, 2), padding=(1, 1))\n  (iconv4): Conv2d(256, 64, kernel_size=(3, 3), stride=(1, 1), padding=(1, 1))\n  (upconv3): ConvTranspose2d(64, 64, kernel_size=(4, 4), stride=(2, 2), padding=(1, 1))\n  (iconv3): Conv2d(128, 32, kernel_size=(3, 3), stride=(1, 1), padding=(1, 1))\n  (upconv2): ConvTranspose2d(32, 32, kernel_size=(4, 4), stride=(2, 2), padding=(1, 1))\n  (iconv2): Conv2d(64, 32, kernel_size=(3, 3), stride=(1, 1), padding=(1, 1))\n  (predict_flow): Conv2d(32, 2, kernel_size=(3, 3), stride=(1, 1), padding=(1, 1))\n)",
    "train_loader": "<torch.utils.data.dataloader.DataLoader object at 0x7f3d6ef301d0>",
    "validation_loader": "<torch.utils.data.dataloader.DataLoader object at 0x7f3d6ef30390>",
    "results_folder": "./results/SpeckleDisplacementNet_04-25_16hr_mirror_10k_EdgePad_Beta_2-5_04_18_2025",
    "writer": "<torch.utils.tensorboard.writer.SummaryWriter object at 0x7f3cf88bc950>",
…
