…
        "show_plots": "True",
        "load_check_point": "False",
        "world_size": "1",
        "num_nodes": "1",
        "proc_per_node": "1",
        "num_levels": "6",
        "corr_activation": "True",
        "output_level": "4",
        "save_model": "10",
        "search_range": "4",
        "lv_chs": "[1, 16, 32, 64, 96, 128]",
        "corr": "costvol_layer",
        "load_all": "True",
        "save_npy": "True",
        "batch_norm": "True",
        "residual": "False",
        "with_refiner": "True",
        "TestFolder": "../images",
        "model": "SpeckleDisplacementNet(\n  (conv1): Conv2d(6, 32, kernel_size=(7, 7), stride=(1, 1), padding=(3, 3))\n  (conv2): Conv2d(32, 64, kernel_size=(5, 5), stride=(2, 2), padding=(2, 2))\n  (conv3): Conv2d(64, 128, kernel_size=(3, 3), stride=(2, 2), padding=(1, 1))\n  (conv4): Conv2d(128, 256, kernel_size=(3, 3), stride=(2, 2), padding=(1, 1))\n  (conv5): Conv2d(256, 256, kernel_size=(3, 3), stride=(2, 2), padding=(1, 1))\n  (conv6): Conv2d(256, 256, kernel_size=(3, 3), stride=(1, 1), padding=(1, 1))\n  (upconv5): ConvTranspose2d(256, 256, kernel_size=(4, 4), stride=(2, 2), padding=(1, 1))\n  (iconv5): Conv2d(512, 128, kernel_size=(3, 3), stride=(1, 1), padding=(1, 1))\n  (upconv4): ConvTranspose2d(128, 128, kernel_size=(4, 4), stride=(2, 2), padding=(1, 1))\n  (iconv4): Conv2d(256, 64, kernel_size=(3, 3), stride=(1, 1), padding=(1, 1))\n  (upconv3): ConvTranspose2d(64, 64, kernel_size=(4, 4), stride=(2, 2), padding=(1, 1))\n  (iconv3): Conv2d(128, 32, kernel_size=(3, 3), stride=(1, 1), padding=(1, 1))\n  (upconv2): ConvTranspose2d(32, 32, kernel_size=(4, 4), stride=(2, 2), padding=(1, 1))\n  (iconv2): Conv2d(64, 32, kernel_size=(3, 3), stride=(1, 1), padding=(1, 1))\n  (predict_flow): Conv2d(32, 2, kernel_size=(3, 3), stride=(1, 1), padding=(1, 1))\n)",
        "train_loader": "<torch.utils.data.dataloader.DataLoader object at 0x7fc701ae4f50>",
        "validation_loader": "<torch.utils.data.dataloader.DataLoader object at 0x7fc706b18810>",
        "results_folder": "./results/SpeckleDisplacementNet_05-01_12hr_mirror_10k_EdgePad_Beta_2-5_04_18_2025",
        "writer": "<torch.utils.tensorboard.writer.SummaryWriter object at 0x7fc70e29f350>",
…
